…
        "outputId": "f071f97b-df39-45c6-a648-ee06742d9bd8"
      },
      "source": [
        "model_train(image_data,target,1)"
      ],
      "execution_count": 175,
      "outputs": [
        {
          "output_type": "stream",
          "text": [
            "(8190, 784)\n",
            "(410, 784)\n",
            "Model: \"sequential_13\"\n",
            "_________________________________________________________________\n",
            "Layer (type)                 Output Shape              Param #   \n",
            "=================================================================\n",
            "conv2d_72 (Conv2D)           (None, 28, 28, 64)        640       \n",
            "_________________________________________________________________\n",
            "conv2d_73 (Conv2D)           (None, 28, 28, 64)        36928     \n",
            "_________________________________________________________________\n",
            "max_pooling2d_36 (MaxPooling (None, 14, 14, 64)        0         \n",
            "_________________________________________________________________\n",
            "dropout_36 (Dropout)         (None, 14, 14, 64)        0         \n",
            "_________________________________________________________________\n",
            "conv2d_74 (Conv2D)           (None, 14, 14, 64)        36928     \n",
            "_________________________________________________________________\n",
            "conv2d_75 (Conv2D)           (None, 14, 14, 64)        36928     \n",
            "_________________________________________________________________\n",
            "max_pooling2d_37 (MaxPooling (None, 7, 7, 64)          0         \n",
            "_________________________________________________________________\n",
            "dropout_37 (Dropout)         (None, 7, 7, 64)          0         \n",
            "_________________________________________________________________\n",
            "conv2d_76 (Conv2D)           (None, 7, 7, 128)         73856     \n",
            "_________________________________________________________________\n",
            "conv2d_77 (Conv2D)           (None, 7, 7, 128)         147584    \n",
            "_________________________________________________________________\n",
            "max_pooling2d_38 (MaxPooling (None, 3, 3, 128)         0         \n",
            "_________________________________________________________________\n",
            "dropout_38 (Dropout)         (None, 3, 3, 128)         0         \n",
            "_________________________________________________________________\n",
            "flatten_12 (Flatten)         (None, 1152)              0         \n",
            "_________________________________________________________________\n",
            "dense_36 (Dense)             (None, 128)               147584    \n",
            "_________________________________________________________________\n",
            "dense_37 (Dense)             (None, 64)                8256      \n",
            "_________________________________________________________________\n",
            "dense_38 (Dense)             (None, 10)                650       \n",
            "=================================================================\n",
            "Total params: 489,354\n",
            "Trainable params: 489,354\n",
            "Non-trainable params: 0\n",
            "_________________________________________________________________\n",
            "Train on 8190 samples, validate on 410 samples\n",
            "Epoch 1/300\n",
      
…
